creditcard-fraud-minmaxscale-2.model (torch_old, 6136 bytes, 8 tensors)

encoder.0.weight f4 [15, 30]
0	0xbdaa8b78	-0.08327383
1	0xbdaee337	-0.085394315
2	0xbdade1c9	-0.08490331
3	0xbdad9f5e	-0.084776625
4	0xbda69552	-0.08133949
5	0xbdacface	-0.08446275
6	0xbdb32975	-0.08748142
7	0xbdaf98fe	-0.08574103
8	0xbdadf908	-0.084947646
9	0xbdaead23	-0.08529117
10	0xbda9fcc3	-0.083001636
11	0xbdb71273	-0.08939066
12	0xbdae9732	-0.08524932
13	0xbdb1c183	-0.086794876
14	0xbdae0297	-0.08496588
15	0xbdb40276	-0.08789532
16	0xbdad599f	-0.084643595
17	0xbdae9100	-0.0852375
18	0xbdabe0cd	-0.08392487
19	0xbdab2f01	-0.08358575
20	0xbdaef384	-0.08542541
21	0xbdaf800e	-0.08569346
22	0xbdb01cd8	-0.085992515
23	0xbdae2fd7	-0.085052185
24	0xbdae9bbd	-0.085257985
25	0xbdabe739	-0.083937116
26	0xbdb47911	-0.08812154
27	0xbdadcf3a	-0.08486791
28	0xbdacd3fd	-0.08438871
29	0xbdeea2f0	-0.116521716
30	0xbc3ef855	-0.011655887
31	0xbd30b538	-0.043141574
32	0xbcf2128b	-0.029549858
33	0xbcede910	-0.029041797
34	0xb9fbad04	-0.00048003357
35	0xbc44e751	-0.012018041
36	0xbc2edecd	-0.010673237
37	0xbbac5ed7	-0.005260329
38	0xbcf7feeb	-0.030272922
39	0xba6bef24	-0.00090001733
40	0xbb78615a	-0.0037899823
41	0xbadf20f9	-0.0017023376
42	0xbca02f6d	-0.019553864
43	0xbc3c7651	-0.011502818
44	0xbc9610ff	-0.018318651
45	0xbbcdf9a1	-0.0062858616
46	0xbc46975d	-0.012121049
47	0xbc9f2439	-0.019426452
48	0xbc1a2b10	-0.009409681
49	0xbc62edd9	-0.013850653
50	0xbba24c59	-0.004952949
51	0xbc839f3a	-0.016067136
52	0xbc23ac97	-0.009989879
53	0xbca60e10	-0.020270377
54	0xbb94be02	-0.0045392523
55	0xbc622a48	-0.013804026
56	0xbba7e33e	-0.005123525
57	0xbc9c5ab0	-0.019086212
58	0xba09fb4f	-0.0005263583
59	0x80140933	-1.84001e-39
60	0xb7cbff45	-2.4318355e-05
61	0xbb184db2	-0.002323967
62	0xba83f220	-0.0010066666
63	0xba7bff99	-0.0009612977
64	0xb3d4b9bb	-9.9058035e-08
65	0xb90cfcbd	-0.00013445593
66	0xb8cdfe30	-9.822508e-05
67	0xb79f8496	-1.9016017e-05
68	0xba81db29	-0.0009907234
69	0xb50e8857	-5.309752e-07
70	0xb717eba3	-9.055165e-06
71	0xb5c01b99	-1.4313147e-06
72	0xb9cd401d	-0.00039148415
73	0xb89f010a	-7.581904e-05
74	0xb9af8b9f	-0.00033482627
75	0xb7bedb85	-2.2751987e-05
76	0xb90bafbd	-0.0001332154
77	0xb9bf4414	-0.0003648108
78	0xb8849f7f	-6.323959e-05
79	0xb930fdb2	-0.00016879177
80	0xb7a65a24	-1.9830717e-05
81	0xb9801df7	-0.00024436388
82	0xb8b4125c	-8.5864885e-05
83	0xb9d8cc5e	-0.00041350996
84	0xb77ecd5c	-1.5187394e-05
85	0xb94345fb	-0.00018622719
86	0xb7b34227	-2.1369267e-05
87	0xb9c0593c	-0.00036687579
88	0xb3f5ddfc	-1.144908e-07
89	0x801ded35	-2.748323e-39
90	0x400af16f	2.170986
91	0x3d051d4c	0.032498643
92	0x3d099d86	0.03359749
93	0xbe5beb84	-0.21476561
94	0xbd894bb4	-0.06703892
95	0x3e4cc607	0.19997416
96	0xbd9e1ba9	-0.077201195
97	0x3d973056	0.07382266
98	0xbd835381	-0.064124115
99	0x3d2bd810	0.0419541
100	0x3cc7a9f2	0.024373028
101	0xbdf086e9	-0.11744482
102	0xbd95f5f9	-0.07322306
103	0x3d1aa4c5	0.037754793
104	0x3c9f8663	0.01947326
105	0x3ce4f9ac	0.027951084
106	0x3cf3a67b	0.02974247
107	0xbd1e5cb6	-0.038662635
108	0x3de6d2cb	0.11270674
109	0x3ce0bcc7	0.027433766
110	0xbddd76c9	-0.10813672
111	0x3c9a70bb	0.018852582
112	0x3d97ee8c	0.07418546
113	0x3d775e46	0.06039264
114	0x3de88179	0.1135282
115	0xbddf0604	-0.10889819
116	0xbd0f997b	-0.03505848
117	0x3cc74a32	0.024327371
118	0x3c85c355	0.016328493
119	0x3df1cd43	0.11806729
120	0xbe5f1b0f	-0.21787666
121	0xbe6f9280	-0.23395729
122	0xbe65b1fc	-0.22431177
123	0xbe6addf9	-0.22936238
124	0xbe14b43a	-0.14521876
125	0xbe59a0b9	-0.21252717
126	0xbe56bc6b	-0.20970313
127	0xbe45052d	-0.19240256
128	0xbe6f3c4e	-0.23362848
129	0xbe209ef0	-0.1568563
130	0xbe3a7eb9	-0.18212403
131	0xbe2d111c	-0.16901058
132	0xbe6356c4	-0.22201067
133	0xbe56ddc6	-0.20983037
134	0xbe602a7f	-0.21891211
135	0xbe464aac	-0.19364423
136	0xbe54d0df	-0.20782803
137	0xbe61b3ad	-0.22041197
138	0xbe4f59d8	-0.20249116
139	0xbe5660f6	-0.20935425
140	0xbe3fc05e	-0.18725726
141	0xbe5c1fbb	-0.21496479
142	0xbe4e3838	-0.20138633
143	0xbe6176bd	-0.22017951
144	0xbe3de647	-0.18544875
145	0xbe56bea8	-0.20971167
146	0xbe41bf3f	-0.18920611
147	0xbe610d67	-0.21977769
148	0xbe17bda6	-0.14818439
149	0x992a02eb	-8.789383e-24
150	0x3d3ae492	0.045628138
151	0xbe366bdf	-0.17814587
152	0xbe035903	-0.12826924
153	0x3dce1d98	0.10064238
154	0x3e380772	0.1797159
155	0xbd848075	-0.06469814
156	0x3e2f65aa	0.17128626
157	0xbde92db8	-0.11385673
158	0xbe1ad69f	-0.15120934
159	0x3efa4e9f	0.48888108
160	0xbe984d23	-0.2974635
161	0xbef7dc1f	-0.48410127
162	0xbf5bcd81	-0.8586045
163	0x40071a41	2.1109774
164	0x3f0aa6b8	0.5416064
165	0xbe72d138	-0.23712623
166	0xbe4144f5	-0.18873961
167	0x3eb39bfe	0.3507995
168	0xbf6746dc	-0.903425
169	0x3e15c026	0.1462408
170	0xbe9e6447	-0.3093588
171	0xbe84c49e	-0.25931257
172	0xbd91185a	-0.07084723
173	0xbd2a687c	-0.04160355
174	0xbde37cbc	-0.111077756
175	0xbd0b4cc1	-0.034008745
176	0x401aaf60	2.416954
177	0xbd300b29	-0.042979393
178	0xbbe608ea	-0.0070201056
179	0xbea42450	-0.32058954
180	0xbb8e38cd	-0.0043402673
181	0xbd41a7c9	-0.047279153
182	0xbd07d480	-0.03316164
183	0xbd08ef4e	-0.033431344
184	0xba9e26c0	-0.0012065992
185	0xbc508874	-0.012727845
186	0xbc216b66	-0.009852266
187	0xbb8a6390	-0.0042232946
188	0xbd0b36f2	-0.033987947
189	0xb958b107	-0.00020665313
190	0xbb3b1fda	-0.002855292
191	0xbb806a03	-0.0039188876
192	0xbccc295a	-0.024922062
193	0xbc40b7e1	-0.01176259
194	0xbcb2ab23	-0.02181012
195	0xba7c9fa9	-0.00096368283
196	0xbc150c3f	-0.009097158
197	0xbcb758a1	-0.022381129
198	0xbbf7ef91	-0.0075664003
199	0xbc537fc2	-0.012908878
200	0xbb8c3c4a	-0.004279648
201	0xbc91523f	-0.017739413
202	0xbc15830c	-0.009125482
203	0xbcb15ace	-0.021649744
204	0xbb4f6ce3	-0.0031650595
205	0xbc7344b3	-0.014847922
206	0xbbacbbd9	-0.0052714166
207	0xbca93e6a	-0.020659644
208	0xb986d016	-0.00025713508
209	0x802405e5	-3.308192e-39
210	0xbe3422db	-0.17591421
211	0x3d1fe688	0.03903821
212	0x3f4397b5	0.7640336
213	0x3e218075	0.15771659
214	0x3e3f07c9	0.18655314
215	0x3e3219b9	0.17392625
216	0xbde6a2c8	-0.11261517
217	0xbf10f7b7	-0.5662798
218	0xbf2ba8a5	-0.67054206
219	0x3fc92df2	1.5717146
220	0xbf6be8a7	-0.92151874
221	0x3f9132bd	1.1343609
222	0xc0758e5b	-3.8368137
223	0x3fc43827	1.5329636
224	0x401eb31e	2.4796824
225	0xbf689119	-0.908464
226	0x3d978bc9	0.07399709
227	0x3f3e4c12	0.74334824
228	0x3fb52a63	1.415356
229	0xbdbaa511	-0.09113515
230	0xbd32c3ff	-0.043643948
231	0xbf29eecb	-0.66379994
232	0xbed3d521	-0.41373542
233	0xbd16f05e	-0.036850326
234	0x3f973b83	1.1815037
235	0x3ddbae81	0.10726643
236	0x3cc1128f	0.02356842
237	0x3d0c62b9	0.034273837
238	0x3dd7462d	0.10511432
239	0xbd8ec64d	-0.069714166
240	0xbe9840b9	-0.2973688
241	0xbe8d7b59	-0.2763317
242	0xbe8af1f1	-0.27137712
243	0xbe8a96fc	-0.27068317
244	0xbe575081	-0.21026804
245	0xbe835567	-0.25651094
246	0xbe8284a3	-0.2549182
247	0xbe78951a	-0.24275628
248	0xbe8abca7	-0.27097055
249	0xbe6420fb	-0.22278206
250	0xbe734554	-0.23756915
251	0xbe65c89c	-0.22439808
252	0xbe870dfc	-0.26377857
253	0xbe8441c4	-0.25831425
254	0xbe869d5a	-0.26291925
255	0xbe74af2e	-0.23894951

encoder.0.bias f4 [15]
0	0xbdae301f	-0.08505272
1	0xbd3e709b	-0.046494108
2	0xbb2a5821	-0.002599247
3	0xbda2626e	-0.0792893
4	0xbe7e5eed	-0.24840899
5	0xbd86003e	-0.06543015
6	0xbd5b8fff	-0.053604122
7	0xbf209ce8	-0.6273942
8	0xbe8e680e	-0.27813762
9	0x3dca751a	0.098856166
10	0x3e0132d8	0.12617052
11	0xbe747398	-0.2387222
12	0x9755fc02	-6.914209e-25
13	0x3e9071fa	0.28211957
14	0xbea25fbd	-0.31713668

encoder.2.weight f4 [7, 15]
0	0xbe6fb82c	-0.234101
1	0x3a2228ce	0.000618589
2	0xadb488d7	-2.05244e-11
3	0xbd3d772f	-0.04625624
4	0xba4b4f96	-0.00077556947
5	0xbeb22452	-0.34793335
6	0x8f08216f	-6.711757e-30
7	0x3e88020c	0.26564062
8	0x3e9d3b60	0.30709362
9	0xbd77dbc0	-0.060512304
10	0xbe701669	-0.23446049
11	0x3e6f860b	0.23390977
12	0x802de75a	-4.21559e-39
13	0x3e2ef6b6	0.170863
14	0xbe6a9da9	-0.22911705
15	0x3e69d755	0.22836049
16	0x3dda934d	0.10672627
17	0xb486900a	-2.5064247e-07
18	0x3c9a54e7	0.018839313
19	0x3cbd5641	0.023112418
20	0xbe45d0ae	-0.19317886
21	0x00191b91	2.305776e-39
22	0x3d28271d	0.041052926
23	0x3e9f16cb	0.31072077
24	0x3eabf822	0.33587748
25	0xbd0656ac	-0.0327975
26	0x3e3a1087	0.18170367
27	0x0011e90e	1.644808e-39
28	0xbe7d5d6b	-0.24742667
29	0xab539e62	-7.518206e-13
30	0x3e6a12f5	0.22858794
31	0xbe30c50e	-0.1726267
32	0x35344b9a	6.716524e-07
33	0xbec5a285	-0.38600555
34	0x3b0f210f	0.0021839773
35	0x3d825de2	0.06365563
36	0xa78bc6c0	-3.8795735e-15
37	0xbe1f8868	-0.15579379
38	0xbea0667b	-0.31328186
39	0x3d016c3a	0.031597354
40	0xbd4edf00	-0.050505638
41	0xbe2b1c9a	-0.1671013
42	0x8003cedd	-3.49715e-40
43	0xbc9c03c1	-0.019044759
44	0x3b00075b	0.0019535634
45	0xbe6e3c18	-0.23265111
46	0xbdb564ee	-0.088571414
47	0x36cc1eed	6.083274e-06
48	0x3d1ffd70	0.039060056
49	0x3b309216	0.0026942543
50	0x3d920c35	0.071312346
51	0x001979bc	2.339557e-39
52	0x3e1e7e17	0.15477787
53	0xbe9d1b2b	-0.3068479
54	0x3e6ae471	0.22938706
55	0xbd7f1a7b	-0.062281113
56	0x3e3ca89b	0.18423693
57	0x8017aac4	-2.173476e-39
58	0x3e9a840d	0.30178872
59	0xbe8eea5e	-0.27913183
60	0xbe781f01	-0.24230577
61	0xb926d89a	-0.00015911684
62	0x8b605112	-4.320182e-32
63	0xbd804025	-0.062622346
64	0x8017c717	-2.183636e-39
65	0xbe6a0783	-0.22854428
66	0x8037adf6	-5.113358e-39
67	0xbe0fd1ca	-0.14044872
68	0xbe933fb5	-0.28759542
69	0x3c9ee7bd	0.01939761
70	0x3ed37ef9	0.4130781
71	0x3e98ad34	0.29819643
72	0x00098c68	8.76888e-40
73	0x3e0b53df	0.13606213
74	0xbe15ab42	-0.14616111
75	0x3e9f7308	0.3114245
76	0x3c7ca303	0.015419724
77	0xbc186acd	-0.009302807
78	0xbd4f6b54	-0.050639465
79	0xb9e7e882	-0.00044232985
80	0x3d300ee8	0.042982966
81	0x940e5cc8	-7.187466e-27
82	0x3f12ddec	0.57369876
83	0x3ea1bfbf	0.31591603
84	0xbcb1c712	-0.02170137
85	0x3dbfe4dd	0.09369824
86	0x3e3bcc40	0.18339634
87	0x803224ca	-4.604972e-39
88	0xbdf721d3	-0.12066998
89	0x3da0e2df	0.07855772
90	0xbe8d7a03	-0.2763215
91	0x3e0fd818	0.14047277
92	0x9da72a2f	-4.424815e-21
93	0xbaddae9a	-0.0016912997
94	0x3a03f6ee	0.0005034049
95	0x391d75ad	0.00015016524
96	0x002d87d1	4.181319e-39
97	0xbb19ff78	-0.0023498219
98	0xbe0f4c85	-0.13994034
99	0xbb345df2	-0.0027521816
100	0xba967457	-0.0011478764
101	0xbe150bea	-0.14555326
102	0x800dd8b4	-1.2716e-39
103	0xbb913aa4	-0.0044320393
104	0x3e4651b9	0.19367112

encoder.2.bias f4 [7]
0	0x3e894ae1	0.2681494
1	0x3dd4437c	0.10364434
2	0x3f015b2f	0.5052976
3	0xbf1eeb09	-0.62077385
4	0xbe542c5a	-0.20720044
5	0xbe5505ee	-0.20803043
6	0x3c2b3118	0.010448717

decoder.0.weight f4 [15, 7]
0	0xbe9a179c	-0.30096138
1	0xbf3b2ae0	-0.731123
2	0xbe453a9e	-0.19260642
3	0x3e52ca9c	0.20585102
4	0x3ede3475	0.43399397
5	0x3ca8ec99	0.020620631
6	0x3bb1e8d3	0.005429366
7	0x3e0880f1	0.13330437
8	0x3df6e755	0.12055842
9	0xbdd55053	-0.10415711
10	0x3de2739c	0.11057207
11	0x3dd00586	0.101573035
12	0x3e97ac20	0.29623508
13	0xb91b6b78	-0.00014821987
14	0xbe3c9711	-0.18417002
15	0x3c0a6301	0.008446456
16	0xbcdb2f24	-0.026755877
17	0xbbd0f3b2	-0.006376707
18	0x3e8b8951	0.27253202
19	0x3c16d980	0.0092071295
20	0x3a1c710c	0.0005967773
21	0xbdd2bc58	-0.1028983
22	0xbe0457e8	-0.12924159
23	0xbe7cb501	-0.24678423
24	0x3d120220	0.035646558
25	0x3f07ae71	0.5300055
26	0x3d3d539a	0.046222307
27	0xb9d4ea96	-0.0004061057
28	0xa2a32643	-4.422175e-18
29	0x1c70a814	7.9626575e-22
30	0xa1446290	-6.653783e-19
31	0x801c0ae4	-2.575301e-39
32	0xaeda28e3	-9.920755e-11
33	0xb2228468	-9.459747e-09
34	0x8c94f045	-2.2947618e-31
35	0xbd8a66cc	-0.06757888
36	0x3d1f7e77	0.038938966
37	0xbeed5262	-0.46351916
38	0x3b60af29	0.003428409
39	0xbd82be70	-0.06383979
40	0xbdfa362f	-0.12217366
41	0x3b10d818	0.0022101458
42	0xbf03c9b5	-0.51479656
43	0x3db5e79a	0.08882065
44	0x3e95aef4	0.2923504
45	0xbee1fe55	-0.44139352
46	0x3e5c396d	0.21506281
47	0xbfe71342	-1.8052752
48	0x3b09ebd0	0.0021045096
49	0x3d84adfd	0.06478498
50	0xbe9dcb4f	-0.30819175
51	0xbd469143	-0.048478376
52	0x3d89566d	0.067059375
53	0x3d801b7e	0.06255244
54	0x3cd7185e	0.026256736
55	0x3ac50c03	0.0015033487
56	0x3b9a65c6	0.0047118394
57	0xb7c58a84	-2.3548731e-05
58	0x37960012	1.7881426e-05
59	0xb6119bd4	-2.1697388e-06
60	0xbba7f380	-0.005125463
61	0xbc45a6cc	-0.012063693
62	0x38f8dd7a	0.00011866815
63	0xbf02f278	-0.5115123
64	0x3d436dd6	0.04771217
65	0x3d206022	0.03915418
66	0x3f547fb1	0.8300734
67	0xbedc5095	-0.4303023
68	0xbd51d19c	-0.05122529
69	0xbd883a64	-0.06651762
70	0xbd0040f6	-0.03131195
71	0x3c8ed1a6	0.017433953
72	0xbc858fff	-0.016304014
73	0xb9373f36	-0.00017475788
74	0xba381c94	-0.00070233014
75	0x3aea3b6b	0.0017870491
76	0xbb893c9d	-0.004188134
77	0xbd37c538	-0.044865817
78	0x3ca63ede	0.02029365
79	0xbe99850e	-0.29984325
80	0x3a55d188	0.0008156528
81	0xbd340bad	-0.043956447
82	0xbd97a03c	-0.07403609
83	0xba1b1722	-0.0005916228
84	0xbe1fd561	-0.15608741
85	0xbd1246c6	-0.035712026
86	0xbd0cee32	-0.03440685
87	0xbdeae2b8	-0.114690244
88	0xbda52fd4	-0.08065763
89	0x3ede2dd4	0.4339434
90	0xba583e44	-0.00082490244
91	0xbd6001d2	-0.054689236
92	0x3d0dce10	0.034620345
93	0xbd3f2df3	-0.04667468
94	0xbd39cc3e	-0.045360796
95	0xbd7d306d	-0.06181376
96	0x3f2a9950	0.66640186
97	0xbb119a2f	-0.0022217145
98	0xbe19556c	-0.14973992
99	0x3c3cc0aa	0.011520544
100	0x3d1904e4	0.03735818
101	0x3e90ef91	0.28307775
102	0xbd953c4d	-0.07286892
103	0xbc551b66	-0.013007021
104	0x3afab64b	0.0019127814

decoder.0.bias f4 [15]
0	0xbe4342a0	-0.19068384
1	0x3e1c9249	0.15290178
2	0x3e0ea833	0.1393135
3	0x3c32f7cf	0.01092334
4	0xbc7100fd	-0.014709708
5	0xbd733411	-0.059375826
6	0xbed759c6	-0.4206068
7	0x3df7348c	0.120705694
8	0xbe651eeb	-0.22375076
9	0xbec3f5b9	-0.3827341
10	0xbe9ff684	-0.31242764
11	0x3e0bd2b9	0.13654603
12	0x3e13d7bd	0.14437766
13	0xbd7c7a25	-0.061639924
14	0x3d970657	0.07374256

decoder.2.weight f4 [30, 15]
0	0x3d500890	0.050789416
1	0xbba643d7	-0.005074005
2	0x3ca3e831	0.020008178
3	0xbd0e61ff	-0.034761425
4	0x84f639f9	-5.788756e-36
5	0x40983aa7	4.7571597
6	0x3d585714	0.05281742
7	0xbca01a37	-0.01954375
8	0x374fcd22	1.2385923e-05
9	0x3d7ee64f	0.06223136
10	0x3d4724f5	0.04861923
11	0x408b8887	4.360416
12	0xbd92d4ba	-0.071694806
13	0x3ddbefeb	0.1073912
14	0x3d316266	0.04330673
15	0xbfb466f9	-1.4093925
16	0xbe41ed98	-0.18938291
17	0x3f5a16f9	0.85191303
18	0xbf7a6804	-0.97814965
19	0x0000fc6b	9.055e-41
20	0xbe35f180	-0.17767906
21	0xbf29e903	-0.6637117
22	0x3ec387c1	0.3818951
23	0x80014884	-1.17849e-40
24	0xbefd1806	-0.4943239
25	0xb8313e9d	-4.22584e-05
26	0x3f87557d	1.0572964
27	0xbeb5e967	-0.35529634
28	0x3f060d53	0.5236408
29	0xbd532221	-0.05154622
30	0xbf092e83	-0.53586596
31	0xbcacf8d4	-0.021114744
32	0x3de1a38b	0.110175215
33	0xbd73979e	-0.059470765
34	0x801c0c69	-2.575846e-39
35	0x3d3d91c5	0.046281595
36	0xbdc44d63	-0.09585073
37	0x3d5b6bb2	0.053569503
38	0x0bd83c42	8.329084e-32
39	0xbda615f8	-0.08109659
40	0xbd6fe80e	-0.058570914
41	0x3c700b6a	0.014651159
42	0xbd1fee55	-0.03904565
43	0x3d966eb3	0.07345333
44	0x3cf9782d	0.030452812
45	0xbec8539f	-0.39126298
46	0xbe3f670e	-0.18691656
47	0xbed62b63	-0.41829976
48	0x3ecccc86	0.3999979
49	0x00121e00	1.663801e-39
50	0x3e367ca0	0.17820978
51	0xbd6fb63c	-0.0585234
52	0xbe5c250c	-0.21498507
53	0x165adfce	1.768052e-25
54	0x3df95694	0.121747166
55	0xbb1a3cfa	-0.002353488
56	0xbf3459be	-0.70449436
57	0x3dd30c51	0.103050835
58	0xbd41e14d	-0.047334004
59	0x3cfe6742	0.031055097
60	0x3ec33292	0.3812452
61	0xbe22edbf	-0.15911005
62	0xbe2c47d5	-0.16824277
63	0x3e5594dc	0.20857567
64	0x22b80f82	4.988972e-18
65	0x3c648534	0.013947774
66	0xbd5ecf0a	-0.054396667
67	0xbe159ed2	-0.14611366
68	0xb73fc1c8	-1.1429605e-05
69	0x3e9ba26c	0.30397356
70	0x3d8b861c	0.06812689
71	0xbe101462	-0.14070275
72	0xbd6c148b	-0.05763678
73	0x3e336d8c	0.17522258
74	0xbcc32f34	-0.02382622
75	0xbd576081	-0.052582268
76	0x3c8037a6	0.015651535
77	0x3d3c7bb6	0.046016417
78	0xbd81da1a	-0.06340428
79	0x920d8fff	-4.4669244e-28
80	0xbd3274db	-0.043568473
81	0x3d3a8e0a	0.045545615
82	0x3d809886	0.062790915
83	0x23b1c15c	1.927227e-17
84	0xbb278fa9	-0.0025567806
85	0xbd8aee00	-0.06783676
86	0x3dc5c2b5	0.09656278
87	0xbcd195f7	-0.025584204
88	0x3c9e2350	0.019303948
89	0xbc60aa87	-0.013712532
90	0x3da21559	0.07914228
91	0x3d053170	0.03251785
92	0xbe716f38	-0.23577583
93	0x3e566943	0.20938592
94	0x0013cc97	1.818267e-39
95	0xbc891684	-0.01673437
96	0x3e79bae2	0.24387696
97	0xbccd2a27	-0.025044514
98	0x205f7c2e	1.8929922e-19
99	0x3d4e1e45	0.050321836
100	0xbae4b13e	-0.0017447842
101	0xbdb1b574	-0.086771876
102	0x3d7991c9	0.060930047
103	0xbd813d98	-0.06310576
104	0x3d3d9258	0.046282142
105	0x3e16292e	0.14664146
106	0x3b10c88e	0.0022092196
107	0x3d827678	0.06370252
108	0xbd6d72db	-0.057970863
109	0x00141619	1.844637e-39
110	0xbb1e5911	-0.0024161974
111	0xbce5382d	-0.027980888
112	0x3c53bcbc	0.012923416
113	0x3738d843	1.1017607e-05
114	0x3d2c19a4	0.04201664
115	0xbd11f757	-0.035636272
116	0x3d1f59cc	0.038903996
117	0xbce3c5fd	-0.02780437
118	0x3ce0b0cd	0.027428055
119	0xbba28a84	-0.00496036
120	0xbdcfa78c	-0.10139379
121	0x3a20b309	0.0006130194
122	0xbda06e77	-0.078335695
123	0x3d6373c6	0.055530332
124	0x0012248f	1.666154e-39
125	0x3d1dabab	0.038493793
126	0x3dd68b1f	0.10475754
127	0x3ca5bc01	0.020231249
128	0x8010c867	-1.541259e-39
129	0xbe05ebfb	-0.130783
130	0xba44f94b	-0.0007513954
131	0xbd5eb01d	-0.054367173
132	0x3d114a1d	0.03547107
133	0xbd1cdba4	-0.038295403
134	0x3ca742d5	0.02041761
135	0xbd94dbc5	-0.0726848
136	0xbe778c27	-0.24174558
137	0xbe881617	-0.26579353
138	0x3ec21111	0.37903646
139	0xb17b3235	-3.6553847e-09
140	0xbd06a887	-0.032875564
141	0xbdde1141	-0.10843135
142	0xbdd00033	-0.10156288
143	0xb88cc401	-6.712229e-05
144	0xbe9894ce	-0.2980103
145	0xbddabc6a	-0.106804684
146	0xba647e9c	-0.0008716376
147	0xbe98c0d7	-0.29834625
148	0x3f09647c	0.5366895
149	0x3deaf49f	0.11472439
150	0x3dd18006	0.10229497
151	0x3c9bf9d0	0.019040018
152	0x3d939802	0.072067276
153	0xbe038a95	-0.12845834
154	0x11d504a7	3.3608342e-28
155	0xbd0b4c16	-0.034008108
156	0xbb6a1559	-0.003571829
157	0x3d1d4c88	0.038403064
158	0x3199ce94	4.4763713e-09
159	0x3db168bb	0.08662554
160	0x3d81d55b	0.063395225
161	0x3d544f37	0.051833358
162	0x3c419905	0.011816268
163	0xbd3b5b8d	-0.045741607
164	0xbd2b8cb6	-0.04188224
165	0x3f062e2e	0.52414215
166	0x3f43224d	0.76224214
167	0x3e4a644b	0.19764821
168	0xbf07a231	-0.5298186
169	0xa1d42fec	-1.4378364e-18
170	0x3de78839	0.11305279
171	0x3f03b29a	0.514444
172	0xbd5bfd8e	-0.053708605
173	0xb73168c9	-1.0574419e-05
174	0x3e0a6585	0.13515289
175	0xbe17ecc1	-0.14836408
176	0xbe5bdc1d	-0.21470685
177	0xbe0318e8	-0.1280247
178	0xbe05b2d3	-0.13056497
179	0xbe79a9d1	-0.24381186
180	0x3cceb955	0.025234858
181	0xbcde8760	-0.027164161
182	0xbe4cbddb	-0.19994299
183	0x3d536d73	0.05161805
184	0x0014ed25	1.921781e-39
185	0x3dd47865	0.10374526
186	0x3e3faae7	0.18717538
187	0xbd8bee2a	-0.068325356
188	0x34b01306	3.2796396e-07
189	0xbe7f17b9	-0.24911393
190	0xbd3e4bfa	-0.046459176
191	0xbdd56816	-0.104202434
192	0x3f123159	0.5710655
193	0xbf5b02c4	-0.85551095
194	0xbc3ccad5	-0.011522968
195	0x3c66fde5	0.014098619
196	0xbf2a0201	-0.6640931
197	0x3efb792a	0.49115878
198	0xbc64fa87	-0.013975746
199	0x80186773	-2.241162e-39
200	0x3cd6e7c5	0.026233563
201	0x3d19fbfc	0.037593827
202	0x3f30320a	0.68826354
203	0x3682d9c0	3.8996513e-06
204	0xbddf25b3	-0.108958624
205	0xbd9d141d	-0.07669852
206	0x3e077bcb	0.13230817
207	0x4029d75f	2.6537702
208	0xbfa38f3c	-1.2778087
209	0x3d94aecc	0.07259902
210	0x3d20df72	0.039275594
211	0x3d1ee8d9	0.03879628
212	0x3e80041c	0.25003135
213	0xbe907faa	-0.282224
214	0x8016c9c3	-2.09276e-39
215	0xbcabe45b	-0.020982912
216	0xbd668e88	-0.056288272
217	0x3dfa0617	0.12208193
218	0xa8f5b110	-2.7277253e-14
219	0x3dc629fa	0.09675975
220	0x3db44149	0.08801515
221	0x3d750fa8	0.059829384
222	0xbe8f5a61	-0.2799864
223	0x3ed5f228	0.41786313
224	0xbda47b84	-0.08031371
225	0xbd7d5d19	-0.061856363
226	0x3beb0654	0.007172385
227	0x3fd231b8	1.6421423
228	0x3e2001fe	0.1562576
229	0xaefe9de3	-1.1578629e-10
230	0x3c5cdbec	0.013480168
231	0x3e1f9c2d	0.1558692
232	0x3f8b45e0	1.0880699
233	0x3989d073	0.00026285983
234	0xbc995e16	-0.018721621
235	0xbdc223a0	-0.09479451
236	0xbe20e86c	-0.15713662
237	0xbf13a026	-0.5766624
238	0x3e736d6e	0.23772213
239	0x3e13ab8c	0.14420909
240	0x3e56b334	0.20966798
241	0xbd99ad2b	-0.07503732
242	0x3e90a367	0.28249666
243	0xbea505c1	-0.32230952
244	0x80125329	-1.682871e-39
245	0xbbd89ee8	-0.00661074
246	0xbec07049	-0.37585667
247	0x3d226b24	0.03965296
248	0xb12cfebf	-2.51741e-09
249	0x3ec74e61	0.38926986
250	0xbe7a81fa	-0.24463645
251	0x3ddd88c9	0.10817105
252	0xbe26e756	-0.16299185
253	0x3e325b8c	0.17417735
254	0xbdfe71e7	-0.12424069
255	0xbd3372e8	-0.043810755

decoder.2.bias f4 [30]
0	0x3c954e11	0.018225702
1	0x3fde4b01	1.7366639
2	0x3f88e938	1.0696173
3	0x3f9b75fb	1.214538
4	0x3eaad8e3	0.33368596
5	0x3f173930	0.59071636
6	0x3f1b7038	0.6071811
7	0x3ee14d5d	0.44004336
8	0x3f8c2869	1.0949832
9	0x3ec37f45	0.38183036
10	0x3ec7d7ef	0.39031932
11	0x3e9033bc	0.2816447
12	0x3f4c76bb	0.7986867
13	0x3e74b39e	0.23896644
14	0x3f3cecc9	0.73798805
15	0x3e3b6245	0.18299206
16	0x3f1c41d0	0.6103792
17	0x3f50bded	0.81539804
18	0x3e97d9a2	0.29658228
19	0x3f361eee	0.71140945
20	0x3ee1cded	0.4410242
21	0x3f3420be	0.7036246
22	0x3f1198c1	0.5687371
23	0x3f4bf2dd	0.79667455
24	0x3e74657a	0.23866835
25	0x3f313a29	0.6922937
26	0x3eaa378c	0.33245504
27	0x3f46636f	0.77495474
28	0x3e867edb	0.26268658
29	0x3bf96ec1	0.00761208
